benchmarks/SubgridLES/input_SubgridLESNet.safetensors (safetensors, 163928 bytes, 1 tensors)

random_input f4 [4096, 10]
00000000: 5815 fe3e 2faa 443f a833 b53d 0033 073e
00000010: 8666 9d3e fb52 223f 86ed fa3e 677d 653f
00000020: 1248 e93e d3de 213f 2aa2 b23e e4ad cd3e
00000030: 80e4 b63c 5ce9 2c3e 8c78 963e d8bd 043f
00000040: 589a 323f 8ccd 4c3f e8e4 243e 8285 903e
00000050: e67d 2e3f 274a 6a3f ae50 cb3e aec8 5f3f
00000060: b0bc d63e 518b 0d3f a5e6 733f 9021 143d
00000070: 34ad 3d3e 9030 bf3e 1236 9c3e 9497 6e3f
00000080: cc21 343e a027 8a3e cc4b 1a3e 50ec 013d
00000090: f81f 553e 4f07 6e3f af1d 393f c009 3e3f
000000a0: 52bb 063f 8c81 793e d8a7 153f 10cb 073d
000000b0: cc0b 0e3e 740c 783e 93c2 503f 930c 4b3f
000000c0: 1c77 8e3e 4ec3 f63e 20dd 513f c13f 7f3f
000000d0: 09cd 323f b94a 113f 7fd2 553f 8088 523e
000000e0: 1fda 173f 5016 e63d d023 1d3e 5c82 773e
000000f0: a3ea 393f fe79 333f 2cb7 503e 72ab 263f
00000100: b744 463f 38b0 df3e 22e3 043f 80a8 1d3f
00000110: 8068 4f3f a4e7 7a3f a8e1 ea3d 0a2f a23e
00000120: 264e 323f e80d 6a3f f462 6f3f 11f1 703f
00000130: 4f79 193f 208c 853d 69c6 0b3f a8b0 3f3e
00000140: a05b 0b3d 1fba 713f 7853 613f 0002 a23a
00000150: 41f5 173f cedf d43e 52df d53e 72d0 8a3e
00000160: 2339 313f 98bd 503e 77ec 2e3f 0bbb 403f
00000170: aea1 5b3f 52dc 2f3f 802d a83b 00de 333e
00000180: 8ee9 3f3f 63ca 1a3f a831 e13d 302e 593e
00000190: 796a 783f aa3f 563f a860 903e 9691 bf3e
000001a0: 8028 c23c 0c66 fb3e 20de fc3d 7821 ea3d
000001b0: fee4 f13e f437 133f 0629 973e ccf3 4b3f
000001c0: 906d 483e b424 743f e8b7 573f 707a a03d
000001d0: 1e49 c03e 94c6 053f e3ac 123f ba5b 1e3f
000001e0: 173b 323f cfaa 073f 1a17 833e 7591 3c3f
000001f0: a0ea a63c c088 503e 62ea bf3e 8a4c 833e
00000200: 5271 a63e 18b5 b83d 808b c93e 5f5c 1b3f
00000210: 1473 323e bcdc f23e 00a1 5b3f e2ae e53e
00000220: b28e 033f 48ea e93e a2e7 193f 3063 513f
00000230: 5d3f 793f 8349 513f 6286 793f 547c ed3e
00000240: d03c 503d e0a2 863e e727 573f 2a57 fe3e
00000250: 92c1 803e f84b ef3d 0060 033d 50bc 9f3d
00000260: e412 cc3e 2b32 463f ba33 453f e0af 913c
00000270: 17d8 4f3f d8b5 de3d 04e1 c93e f232 983e
00000280: c4b0 ce3e 7cbc cd3e 303a 523d f0d6 8b3d
00000290: f6f0 d73e c3a7 013f a4b4 8b3e ae37 303f
000002a0: 30ae 4c3d 28b9 ee3e d190 703f 6494 973e
000002b0: 9b95 733f 0e5b 2e3f 90c2 473d 3afc 503f
000002c0: 8275 e23e 48b8 8d3e 0a5b 663f b082 c43d
000002d0: 2bbc 0d3f d066 ca3e 0b68 5b3f 02bb 233f
000002e0: 3381 3d3f 5034 2d3f 4070 c23e 6c29 ca3e
000002f0: 0024 b43d 265b 453f 13a1 653f ae94 573f
00000300: a8d8 163e 73b5 053f e012 173e f026 663e
00000310: a0a7 553e 4dbe 2b3f 78e4 4e3e 306a fa3e
00000320: 7d62 053f 0283 523f 18f0 f93d 7881 203e
00000330: 88b3 563e 6b97 593f 1afa a33e 70f7 6b3f
00000340: 2849 2e3f 4835 103f 2618 fe3e be64 cd3e
00000350: 480f 103f 348b c53e 8433 fe3e f854 103f
00000360: a005 df3d 0ca5 733e ec5b 673f e8f9 c03d
00000370: 1c9e ed3e 609f 7e3f 043d 2e3f c39f 033f
00000380: 6897 883d 8b68 3f3f f04f 133e ac54 b73e
00000390: 9a1b aa3e f216 da3e 6d66 013f 4b93 693f
000003a0: b8fa 0f3f 10a6 723f 984c 4e3f 744e 3c3e
000003b0: 9568 393f b811 163e 3280 933e d0a5 253f
000003c0: bc43 2a3f 7907 603f ec96 ad3e 7534 003f
000003d0: bde5 413f 60ca 863c a18a 5c3f 403b b13d
000003e0: a0c3 013f c879 d43e ec57 723e fbea 103f
000003f0: 79d8 693f 8c2a b53e 5407 503e 3e52 a13e
0.4962566 0.7682218 0.08847743 0.13203049 0.30742282 0.6340787 0.4900934 0.89644474
0.45562798 0.6323063 0.34889346 0.4017173 0.022325754 0.16885895 0.29388845 0.5185218
0.6976676 0.8000114 0.16102946 0.28226858 0.68160856 0.915194 0.3970999 0.8741559
0.41940832 0.55290705 0.9527381 0.03616482 0.18523103 0.37341738 0.30510002 0.9320004
0.17591017 0.26983356 0.15067977 0.031719506 0.20812976 0.929799 0.7231092 0.7423363
0.5262958 0.24365824 0.58459234 0.03315264 0.13871688 0.242235 0.81546897 0.7931606
0.27825248 0.4819588 0.81978035 0.99706656 0.6984411 0.5675464 0.83524317 0.20559883
0.593172 0.112347245 0.15345693 0.24170822 0.7262365 0.7010802 0.20382375 0.65105355
0.774486 0.43689132 0.5190908 0.61585236 0.8101883 0.98009706 0.11468822 0.31676513
0.69650495 0.9142747 0.93510365 0.9411784 0.5995073 0.06520867 0.54599625 0.18719733
0.034022927 0.94424623 0.8801799 0.0012360215 0.593586 0.41577 0.41771942 0.27112156
0.6922781 0.20384824 0.68329567 0.75285405 0.8579358 0.6869556 0.005132377 0.17565155
0.7496575 0.6046507 0.10995799 0.21209025 0.97037464 0.83690894 0.28198743 0.3741576
0.023700953 0.49101293 0.123470545 0.11432165 0.4724502 0.5750725 0.29523486 0.7966888
0.19573045 0.95368505 0.84264994 0.07835853 0.37555784 0.5225613 0.57295054 0.61858714
0.69621414 0.5299501 0.25603563 0.7365945 0.02037555 0.20364666 0.37483507 0.25644332
0.32508332 0.09018916 0.39364243 0.6068782 0.17426711 0.47434032 0.8579254 0.44859987
0.5138961 0.45686555 0.6011907 0.81791973 0.9736231 0.81752795 0.97470677 0.46383917
0.050839245 0.2629614 0.8404526 0.49675876 0.25147682 0.11684412 0.032073975 0.0779959
0.39858162 0.774203 0.77032053 0.017784059 0.811891 0.10874528 0.39429486 0.29726368
0.40369236 0.40182865 0.051325023 0.068281054 0.42176026 0.5064661 0.27286255 0.6883496
0.049970806 0.46625638 0.9397097 0.296054 0.95150155 0.6810769 0.048769534 0.8163487
0.44230276 0.27679658 0.89982665 0.09595239 0.55365247 0.39531565 0.8570563 0.63957226
0.7402527 0.6765795 0.37976265 0.39484727 0.08795929 0.77092206 0.89698905 0.8421124
0.14731085 0.52229995 0.14753294 0.22475791 0.20864725 0.6708725 0.20204341 0.4890914
0.52103406 0.8223115 0.122039974 0.15674388 0.20966923 0.8499667 0.3202675 0.92174435
0.6808038 0.563313 0.496278 0.40115923 0.5627332 0.38582766 0.49648678 0.5637965
0.10889745 0.23793429 0.90374637 0.09422666 0.4640969 0.99461937 0.6806185 0.5141565
0.066695035 0.74768895 0.14385962 0.35806787 0.33224183 0.4259563 0.50546914 0.91240376
0.5624194 0.9478464 0.8058562 0.18389302 0.72425205 0.14655197 0.28808743 0.64706135
0.66509604 0.875114 0.33904207 0.50080043 0.7574118 0.016453922 0.8614903 0.08653879
0.50689125 0.41499162 0.23666352 0.5660855 0.91345936 0.35384023 0.20315295 0.31508058
