benchmarks/SubgridLES/output_SubgridLESNet.safetensors (safetensors, 98384 bytes, 1 tensors)

output f4 [4096, 6]
000000 4e c3 8b 3f 6c 14 08 3f 24 44 c1 3e 97 e0 97 3e
       1.0918977 0.5315616 0.377473 0.29663536
000010 4c 5c 7b 3e 08 d5 56 3e 24 99 62 3f 5c f9 eb 3e
       0.24546927 0.20979702 0.88514924 0.46088684
000020 72 b8 aa 3e a8 6d 87 3e 50 6e 61 3e 74 6c 41 3e
       0.33343846 0.2645085 0.22014737 0.18889028
000030 36 84 a6 3f e8 00 15 3f c4 fa ce 3e 67 05 a1 3e
       1.3009098 0.5820451 0.40425694 0.31449434
000040 05 7c 84 3e bc a0 61 3e 95 39 82 3f bd 3f 01 3f
       0.2587587 0.22033972 1.0173823 0.5048788
000050 a6 ca b8 3e 10 bd 91 3e 62 bd 71 3e b0 ec 4e 3e
       0.36092108 0.28464556 0.236074 0.20207477
000060 28 44 7a 3f 8c 00 fa 3e 6c 3d b3 3e 37 95 8d 3e
       0.9776025 0.48828542 0.350078 0.27652904
000070 60 15 6b 3e 6c 5e 49 3e af 56 ac 3f de fd 14 3f
       0.22957373 0.19664925 1.3463954 0.5819987
000080 48 ca cd 3e b6 c5 9f 3e ae 54 83 3e 1a 8b 5f 3e
       0.4019339 0.3120553 0.25650543 0.21830407
000090 84 7e ab 3f 1c 0d 1f 3f 72 ee dd 3e 28 c4 ac 3e
       1.3397985 0.6212938 0.43345982 0.33743405
0000a0 00 20 8e 3e e8 f5 71 3e 91 e6 90 3f a6 c7 0f 3f
       0.2775879 0.23628962 1.1320363 0.56164014
0000b0 c9 a1 ca 3e 4a 80 9e 3e 1f c7 82 3e 76 19 5f 3e
       0.39576557 0.30957252 0.25542542 0.21787056
0000c0 77 0a 86 3f 4b bd 03 3f 6c e8 ba 3e bf df 92 3e
       1.0471944 0.51460713 0.3650545 0.2868633
0000d0 4a 20 73 3e 9e d7 4f 3e a8 60 9d 3f 5e 14 0d 3f
       0.23742786 0.20297095 1.2295122 0.551092
0000e0 e8 d7 c4 3e dc 91 99 3e c8 2f 7d 3e a4 e2 57 3e
       0.38445973 0.29994094 0.24725258 0.2108255
0000f0 25 31 95 3f 38 21 04 3f ce 8f b9 3e 5b 60 91 3e
       1.1655623 0.5161319 0.36242527 0.28393826
000100 36 57 70 3e 02 54 4d 3e 2a 12 94 3f 76 b7 0e 3f
       0.23470768 0.20051578 1.1568043 0.5574869
000110 08 14 c9 3e 7e 5e 9d 3e 67 e7 81 3e 02 b0 5d 3e
       0.39273095 0.30736154 0.25371858 0.21649173
000120 83 96 80 3f 58 35 f0 3e 9a de aa 3e ae b9 86 3e
       1.0045933 0.46915698 0.33372957 0.26313537
000130 59 99 5f 3e fd 86 3f 3e 70 34 91 3f 90 54 0e 3f
       0.21835841 0.18703838 1.1344128 0.5559778
000140 99 60 c9 3e 2f dd 9d 3e 09 6c 82 3e 8c ae 5e 3e
       0.3933151 0.30832812 0.2547305 0.21746272
000150 79 d6 ac 3f a8 ca 14 3f de b8 cd 3e 24 cf 9f 3e
       1.3502952 0.5812173 0.40180105 0.31212723
000160 71 67 83 3e 04 b7 5f 3e 76 a3 58 3f 10 65 eb 3e
       0.25664857 0.21847159 0.8462442 0.45975542
000170 f2 93 aa 3e 33 58 87 3e d6 4b 61 3e 0a 4e 41 3e
       0.33315998 0.26434478 0.22001585 0.18877426
000180 08 2a 5b 3f 2b af e2 3e d9 76 a4 3e 1a bb 82 3e
       0.8561101 0.44274268 0.32121924 0.25533372
000190 c6 ea 59 3e 5e 2a 3b 3e 63 67 a6 3f e1 fc 14 3f
       0.21280965 0.1827788 1.3000301 0.5819836
0001a0 c2 50 cf 3e 3a 68 a1 3e 60 db 84 3e 96 51 62 3e
       0.404913 0.3152483 0.2594862 0.22101435
0001b0 57 96 9e 3f a8 f9 13 3f 0b f2 ce 3e cc 67 a1 3e
       1.238963 0.5780282 0.4041904 0.31524503
0001c0 a3 f8 84 3e c3 a0 62 3e 42 37 94 3f 7a e7 04 3f
       0.25970945 0.22131638 1.1579363 0.51915705
0001d0 98 d6 ba 3e 6e 65 92 3e 54 05 72 3e 70 c0 4e 3e
       0.36491847 0.2859301 0.23634845 0.20190597
0001e0 9d 65 91 3f e6 19 0c 3f cc 49 c6 3e 40 8a 9b 3e
       1.1359135 0.5472702 0.38728178 0.30378914
0001f0 bd 90 80 3e f2 97 5b 3e c4 87 85 3f c2 01 01 3f
       0.25110427 0.21444681 1.0432057 0.5039331
000200 19 45 b7 3e 7b 2b 90 3e 3a d4 6e 3e 7a 47 4c 3e
       0.35794905 0.28158173 0.23323146 0.19949141
000210 f2 e8 96 3f da 55 0a 3f 70 e7 c1 3e 52 97 97 3e
       1.1789839 0.5403725 0.37871885 0.29607636
000220 93 38 7a 3e 31 85 55 3e 51 28 a8 3f 02 d4 18 3f
       0.24435644 0.2085159 1.3137304 0.596985
000230 ef 57 d4 3e 38 1f a5 3e a6 cc 87 3e 74 30 67 3e
       0.41473338 0.3225038 0.26523322 0.22577077
000240 80 35 9c 3f f9 42 0e 3f d4 0a c7 3e fe 6b 9b 3e
       1.2203827 0.5557094 0.3887545 0.3035583
000250 88 2a 80 3e aa 9a 5a 3e c0 6f 79 3f ac 82 f4 3e
       0.2503245 0.21348062 0.9743614 0.47755945
000260 70 73 ae 3e e4 99 89 3e d6 5a 64 3e 7e 91 43 3e
       0.34072447 0.26875222 0.22300276 0.1909847
000270 83 ed a3 3f dc 69 1c 3f 74 a1 da 3e 60 4d aa 3e
       1.2806858 0.6109903 0.42701304 0.33262157
000280 c2 25 8c 3e a6 a6 6e 3e 52 15 59 3f fc 26 e8 3e
       0.27372557 0.23305759 0.8479816 0.45342243
000290 5a c5 a8 3e 85 29 86 3e 59 95 5f 3e f8 fa 3f 3e
       0.32963067 0.26203552 0.21834315 0.1874808
0002a0 98 66 8b 3f 17 f4 09 3f be b6 c3 3e 8a a4 99 3e
       1.0890684 0.53888077 0.3822536 0.30008346
0002b0 6a 19 7e 3e b5 0f 59 3e eb 45 87 3f 1f 33 05 3f
       0.24814382 0.21197398 1.0568212 0.5203113
0002c0 06 11 bd 3e 1e 91 94 3e 20 e7 75 3e 6c 31 52 3e
       0.3692705 0.29016966 0.24013948 0.20526665
0002d0 41 0f 87 3f 08 3e 07 3f 34 76 c0 3e 58 55 97 3e
       1.055153 0.5282903 0.37590182 0.295573
0002e0 e4 86 7a 3e e6 26 56 3e a9 d7 85 3f 6b e4 08 3f
       0.24465519 0.20913276 1.0456439 0.5347354
0002f0 02 ed c2 3e f4 3c 99 3e 25 9d 7d 3e f2 bd 58 3e
       0.38071448 0.29929316 0.24766977 0.21166208
000300 07 87 9e 3f 78 8d 17 3f ec 9c d4 3e 0e ee a5 3e
       1.2384957 0.5920024 0.41525972 0.32408184
000310 62 b5 88 3e 9a fa 68 3e 1e 2c 97 3f c7 ae 1b 3f
       0.26700884 0.22751847 1.1810338 0.60813564
000320 0a 3c dc 3e 4a 4d ac 3e 74 18 8e 3e 87 43 72 3e
       0.43014556 0.33652717 0.2775303 0.23658572
000330 54 c0 9d 3f f3 b0 17 3f e4 b4 d4 3e 6d f6 a5 3e
       1.2324319 0.5925438 0.4154426 0.3241457
000340 a1 b7 88 3e 96 f9 68 3e 58 04 9b 3f 2a bc 12 3f
       0.26702598 0.2275146 1.2110701 0.57318366
000350 34 b9 cd 3e 06 9f a0 3e be 66 84 3e 04 bd 61 3e
       0.4018036 0.31371325 0.25859636 0.2204476
000360 06 98 71 3f 63 52 00 3f eb 40 b8 3e ef 6d 91 3e
       0.94372594 0.5012571 0.35987028 0.28404185
000370 90 45 71 3e b7 87 4e 3e c5 a4 85 3f 5e 23 09 3f
       0.23561692 0.20168959 1.0440909 0.5356959
000380 fa 24 c4 3e 6a 80 9a 3e 5a f9 7f 3e b9 e5 5a 3e
       0.3830946 0.30176097 0.24997464 0.21376695
000390 ca 7d c2 3f 70 3d 2e 3f 0c 14 f0 3e aa ac b9 3e
       1.5194638 0.68062496 0.46890295 0.36264545
0003a0 fc 21 98 3e 08 26 81 3e 94 1e 86 3f 66 df 04 3f
       0.29713428 0.25224328 1.0478082 0.5190338
0003b0 13 83 bd 3e 27 38 95 3e 75 3e 77 3e 02 79 53 3e
       0.37014064 0.29144403 0.24144919 0.2065163
0003c0 a9 12 ae 3f dc 8c 1f 3f 18 01 de 3e 98 9d ac 3e
       1.3599445 0.6232431 0.4336021 0.33713984
0003d0 c4 e8 8d 3e 42 7f 71 3e 0e 23 87 3f 08 f6 06 3f
       0.2771665 0.23583701 1.0557573 0.52719164
0003e0 7a 04 c0 3e 9d fe 96 3e 3f fd 79 3e a8 b5 55 3e
       0.37503415 0.2949113 0.24413012 0.20870078
0003f0 a6 f0 84 3f 56 23 01 3f 36 91 b7 3e 8e 6e 90 3e
       1.038594 0.50444543 0.35852975 0.28209347
