benchmarks/SubgridLES/output_SubgridLESNet.safetensors (safetensors, 98384 bytes, 1 tensors)

output f4 [4096, 6]
0	0x403638c6	2.8472152
1	0x3f062770	0.52403927
2	0x3eb12d0a	0.34604675
3	0x3e846fd5	0.2586657
4	0x3e538911	0.20657755
5	0x3e301878	0.17196834
6	0x40238c45	2.5554364
7	0x3f057ca9	0.5214334
8	0x3eb07a9f	0.34468552
9	0x3e83f6ce	0.25774235
10	0x3e52d1cf	0.20587848
11	0x3e2f8500	0.17140579
12	0x4046e2b9	3.107588
13	0x3f0692d8	0.52567816
14	0x3eb19bb1	0.34689096
15	0x3e84ba7b	0.25923523
16	0x3e53f9c2	0.20700744
17	0x3e3072fd	0.17231365
18	0x402f6c00	2.7409668
19	0x3f05e92f	0.52308935
20	0x3eb0ec08	0.34555078
21	0x3e8443be	0.25832933
22	0x3e534650	0.20632291
23	0x3e2fe2c2	0.17176345
24	0x402b86fe	2.6801143
25	0x3f05bf88	0.5224538
26	0x3eb0c04e	0.34521717
27	0x3e842607	0.25810263
28	0x3e531946	0.2061511
29	0x3e2fbe7d	0.1716251
30	0x40498450	3.1487007
31	0x3f069036	0.525638
32	0x3eb19819	0.34686354
33	0x3e84b7d2	0.25921494
34	0x3e53f58b	0.20699136
35	0x3e306f81	0.17230035
36	0x404cfd6e	3.2029681
37	0x3f06fc63	0.5272886
38	0x3eb20b9d	0.34774485
39	0x3e8506d7	0.2598178
40	0x3e546dbb	0.20744984
41	0x3e30d07e	0.17267033
42	0x403afea6	2.9217925
43	0x3f065f46	0.52489126
44	0x3eb1678c	0.34649312
45	0x3e849790	0.25896883
46	0x3e53c542	0.20680717
47	0x3e3048ed	0.17215319
48	0x4031cef5	2.7782567
49	0x3f05f3df	0.5232524
50	0x3eb0f6b4	0.3456322
51	0x3e844ada	0.25838357
52	0x3e5350f8	0.20636356
53	0x3e2feb47	0.17179595
54	0x403fe24d	2.9981873
55	0x3f064a52	0.52457154
56	0x3eb14fb3	0.34631118
57	0x3e8486df	0.25884148
58	0x3e53ab90	0.20670915
59	0x3e303409	0.1720735
60	0x40391a79	2.8922408
61	0x3f05ff36	0.52342546
62	0x3eb100f0	0.34571028
63	0x3e84515f	0.2584333
64	0x3e535a7e	0.20639989
65	0x3e2ff2c4	0.17182451
66	0x403c3d4c	2.9412413
67	0x3f065d27	0.5248589
68	0x3eb16503	0.34647378
69	0x3e8495c4	0.25895512
70	0x3e53c277	0.20679651
71	0x3e3046a5	0.17214449
72	0x402b3ddc	2.6756506
73	0x3f058ae0	0.5216503
74	0x3eb087b0	0.3447852
75	0x3e83ff31	0.25780633
76	0x3e52de21	0.20592548
77	0x3e2f8eb8	0.17144287
78	0x403ae237	2.920057
79	0x3f065e8b	0.5248801
80	0x3eb166f2	0.34648854
81	0x3e849734	0.2589661
82	0x3e53c4bf	0.20680521
83	0x3e304888	0.17215168
84	0x4049c2b4	3.1525087
85	0x3f069261	0.52567106
86	0x3eb19a68	0.34688115
87	0x3e84b966	0.25922698
88	0x3e53f7f2	0.20700052
89	0x3e307171	0.17230774
90	0x4021005c	2.515647
91	0x3f057314	0.5212872
92	0x3eb070f4	0.34461176
93	0x3e83f056	0.257693
94	0x3e52c817	0.2058414
95	0x3e2f7d36	0.17137608
96	0x402030ce	2.5029788
97	0x3f0551b0	0.5207777
98	0x3eb04d5d	0.34434023
99	0x3e83d802	0.25750738
100	0x3e52a31a	0.20570031
101	0x3e2f5f5f	0.17126225
102	0x4046eb55	3.1081135
103	0x3f06970e	0.5257424
104	0x3eb1a043	0.34692582
105	0x3e84bda0	0.25925922
106	0x3e53fe8e	0.20702574
107	0x3e3076dd	0.17232843
108	0x4042e874	3.0454378
109	0x3f068ba2	0.5255681
110	0x3eb19517	0.3468406
111	0x3e84b63f	0.25920293
112	0x3e53f38c	0.20698375
113	0x3e306e17	0.17229496
114	0x4038ea7c	2.8893118
115	0x3f0605d7	0.5235266
116	0x3eb1081d	0.34576502
117	0x3e84564d	0.25847092
118	0x3e536203	0.20642857
119	0x3e2ff8d8	0.1718477
120	0x403a3fae	2.9101367
121	0x3f064cf0	0.5246115
122	0x3eb1543b	0.34634575
123	0x3e848a6c	0.25886858
124	0x3e53b153	0.20673113
125	0x3e3038df	0.17209195
126	0x4030afcf	2.7607305
127	0x3f05de3f	0.52292246
128	0x3eb0dfcf	0.34545752
129	0x3e843b3d	0.25826445
130	0x3e533944	0.20627314
131	0x3e2fd82b	0.17172305
132	0x403bf153	2.9366043
133	0x3f0631b2	0.5241958
134	0x3eb13657	0.3461177
135	0x3e8475c4	0.25871098
136	0x3e5391be	0.20661065
137	0x3e301f4d	0.1719944
138	0x4048fecd	3.1405518
139	0x3f06b66e	0.52622116
140	0x3eb1c15f	0.34717843
141	0x3e84d42c	0.25943124
142	0x3e5420c4	0.20715624
143	0x3e30926e	0.17243358
144	0x403fd4da	2.9973664
145	0x3f06589f	0.52478975
146	0x3eb15f21	0.3464289
147	0x3e849178	0.25892234
148	0x3e53bbb7	0.20677076
149	0x3e304116	0.17212328
150	0x402a2763	2.658654
151	0x3f059bff	0.52191156
152	0x3eb09a5e	0.34492773
153	0x3e840c14	0.25790465
154	0x3e52f1ce	0.20600054
155	0x3e2f9ea4	0.1715036
156	0x40486386	3.1310744
157	0x3f06db95	0.52678806
158	0x3eb1e989	0.34748486
159	0x3e84efc6	0.25964183
160	0x3e544ad9	0.20731677
161	0x3e30b471	0.17256333
162	0x4020b435	2.510999
163	0x3f056c6e	0.52118576
164	0x3eb069fe	0.34455866
165	0x3e83eb9c	0.25765693
166	0x3e52c0ee	0.2058141
167	0x3e2f7774	0.17135412
168	0x40369b2a	2.8532205
169	0x3f063355	0.52422076
170	0x3eb139a7	0.34614298
171	0x3e84786f	0.25873134
172	0x3e539621	0.20662738
173	0x3e302300	0.17200851
174	0x4032f25c	2.7960424
175	0x3f0603f0	0.5234976
176	0x3eb107b0	0.34576178
177	0x3e84566c	0.25847185
178	0x3e536288	0.20643055
179	0x3e2ff96e	0.17184994
180	0x4033a8fe	2.8071895
181	0x3f061b2b	0.52385205
182	0x3eb12084	0.3459512
183	0x3e846769	0.25860146
184	0x3e537c61	0.20652916
185	0x3e300e4a	0.17192951
186	0x4033a216	2.806768
187	0x3f06282a	0.52405035
188	0x3eb12e78	0.34605765
189	0x3e8470fa	0.25867444
190	0x3e538af1	0.2065847
191	0x3e301a0d	0.17197438
192	0x40443c86	3.066194
193	0x3f06b107	0.5261387
194	0x3eb1bcf7	0.3471448
195	0x3e84d183	0.25941095
196	0x3e541d00	0.20714188
197	0x3e308f89	0.17242254
198	0x4042639b	3.0373294
199	0x3f06dbdf	0.52679247
200	0x3eb1eb9c	0.34750068
201	0x3e84f1a7	0.25965616
202	0x3e544e12	0.20732906
203	0x3e30b73a	0.17257395
204	0x4043de33	3.060437
205	0x3f06af9f	0.52611727
206	0x3eb1bb87	0.34713385
207	0x3e84d08b	0.25940356
208	0x3e541b8c	0.20713633
209	0x3e308e5e	0.17241809
210	0x4040d3b4	3.0129213
211	0x3f068070	0.5253973
212	0x3eb189a4	0.34675324
213	0x3e84ae8b	0.25914416
214	0x3e53e7f0	0.20693946
215	0x3e3064c6	0.17225942
216	0x402a85e3	2.6644218
217	0x3f05d5ae	0.52279174
218	0x3eb0d84c	0.3454002
219	0x3e843686	0.25822848
220	0x3e53326f	0.20624708
221	0x3e2fd2d3	0.17170267
222	0x4033db38	2.810255
223	0x3f06358b	0.5242545
224	0x3eb13ced	0.34616795
225	0x3e847aea	0.25875026
226	0x3e539a17	0.2066425
227	0x3e30264b	0.17202108
228	0x405cd6af	3.4506032
229	0x3f078261	0.5293332
230	0x3eb29724	0.34880936
231	0x3e85655e	0.260539
232	0x3e54fcc2	0.20799544
233	0x3e31438b	0.17310922
234	0x40327e58	2.7889614
235	0x3f060a33	0.5235931
236	0x3eb10ea7	0.3458149
237	0x3e845b43	0.25850877
238	0x3e5369f3	0.20645885
239	0x3e2fff73	0.1718729
240	0x404e49df	3.2232587
241	0x3f06fd9b	0.5273072
242	0x3eb20c84	0.34775174
243	0x3e85075a	0.2598217
244	0x3e546e6d	0.20745249
245	0x3e30d103	0.17267232
246	0x40339996	2.8062491
247	0x3f0618ea	0.52381766
248	0x3eb11e1e	0.3459329
249	0x3e8465c7	0.258589
250	0x3e5379e5	0.20651968
251	0x3e300c49	0.17192186
252	0x403076c1	2.7572482
253	0x3f05dfac	0.5229442
254	0x3eb0e169	0.34546974
255	0x3e843c5b	0.25827298
