benchmarks/SubgridLES/weights_SubgridLESNet.safetensors (safetensors, 20720 bytes, 4 tensors)

fc1.bias f4 [300]
000000 ab aa aa 3e 00 00 80 3e cd cc 4c 3e ab aa 2a 3e
       0.33333334 0.25 0.2 0.16666667
000010 25 49 12 3e 00 00 00 3e 39 8e e3 3d cd cc cc 3d
       0.14285715 0.125 0.11111111 0.1
000020 8c 2e ba 3d ab aa aa 3d d9 89 9d 3d 25 49 92 3d
       0.09090909 0.083333336 0.07692308 0.071428575
000030 89 88 88 3d 00 00 80 3d f1 f0 70 3d 39 8e 63 3d
       0.06666667 0.0625 0.05882353 0.055555556
000040 36 94 57 3d cd cc 4c 3d 31 0c 43 3d 8c 2e 3a 3d
       0.05263158 0.05 0.04761905 0.045454547
000050 43 16 32 3d ab aa 2a 3d 0a d7 23 3d d9 89 1d 3d
       0.04347826 0.041666668 0.04 0.03846154
000060 26 b4 17 3d 25 49 12 3d cb 3d 0d 3d 89 88 08 3d
       0.037037037 0.035714287 0.03448276 0.033333335
000070 08 21 04 3d 00 00 00 3d 10 3e f8 3c f1 f0 f0 3c
       0.032258064 0.03125 0.030303031 0.029411765
000080 a1 0e ea 3c 39 8e e3 3c c9 67 dd 3c 36 94 d7 3c
       0.028571429 0.027777778 0.027027028 0.02631579
000090 21 0d d2 3c cd cc cc 3c 0c ce c7 3c 31 0c c3 3c
       0.025641026 0.025 0.024390243 0.023809524
0000a0 fa 82 be 3c 8c 2e ba 3c 61 0b b6 3c 43 16 b2 3c
       0.023255814 0.022727273 0.022222223 0.02173913
0000b0 41 4c ae 3c ab aa aa 3c 05 2f a7 3c 0a d7 a3 3c
       0.021276595 0.020833334 0.020408163 0.02
0000c0 a1 a0 a0 3c d9 89 9d 3c e8 90 9a 3c 26 b4 97 3c
       0.019607844 0.01923077 0.018867925 0.018518519
0000d0 09 f2 94 3c 25 49 92 3c 24 b8 8f 3c cb 3d 8d 3c
       0.018181818 0.017857144 0.01754386 0.01724138
0000e0 f3 d8 8a 3c 89 88 88 3c 8a 4b 86 3c 08 21 84 3c
       0.016949153 0.016666668 0.016393442 0.016129032
0000f0 21 08 82 3c 00 00 80 3c c1 0f 7c 3c 10 3e 78 3c
       0.015873017 0.015625 0.015384615 0.015151516
000100 8d 89 74 3c f1 f0 70 3c 04 73 6d 3c a1 0e 6a 3c
       0.014925373 0.014705882 0.014492754 0.014285714
000110 b4 c2 66 3c 39 8e 63 3c 38 70 60 3c c9 67 5d 3c
       0.014084507 0.013888889 0.01369863 0.013513514
000120 0e 74 5a 3c 36 94 57 3c 7b c7 54 3c 21 0d 52 3c
       0.013333334 0.013157895 0.012987013 0.012820513
000130 75 64 4f 3c cd cc 4c 3c 88 45 4a 3c 0c ce 47 3c
       0.012658228 0.0125 0.012345679 0.0121951215
000140 c8 65 45 3c 31 0c 43 3c c1 c0 40 3c fa 82 3e 3c
       0.012048192 0.011904762 0.011764706 0.011627907
000150 64 52 3c 3c 8c 2e 3a 3c 03 17 38 3c 61 0b 36 3c
       0.011494253 0.011363637 0.011235955 0.011111111
000160 41 0b 34 3c 43 16 32 3c 0b 2c 30 3c 41 4c 2e 3c
       0.010989011 0.010869565 0.010752688 0.010638298
000170 92 76 2c 3c ab aa 2a 3c 3f e8 28 3c 05 2f 27 3c
       0.010526316 0.010416667 0.010309278 0.010204081
000180 b5 7e 25 3c 0a d7 23 3c c3 37 22 3c a1 a0 20 3c
       0.01010101 0.01 0.00990099 0.009803922
000190 66 11 1f 3c d9 89 1d 3c c1 09 1c 3c e8 90 1a 3c
       0.009708738 0.009615385 0.00952381 0.009433962
0001a0 1a 1f 19 3c 26 b4 17 3c da 4f 16 3c 09 f2 14 3c
       0.009345794 0.009259259 0.0091743115 0.009090909
0001b0 86 9a 13 3c 25 49 12 3c bc fd 10 3c 24 b8 0f 3c
       0.009009009 0.008928572 0.0088495575 0.00877193
0001c0 35 78 0e 3c cb 3d 0d 3c c1 08 0c 3c f3 d8 0a 3c
       0.008695652 0.00862069 0.008547009 0.008474576
0001d0 41 ae 09 3c 89 88 08 3c ab 67 07 3c 8a 4b 06 3c
       0.008403362 0.008333334 0.008264462 0.008196721
0001e0 08 34 05 3c 08 21 04 3c 6f 12 03 3c 21 08 02 3c
       0.008130081 0.008064516 0.008 0.007936508
0001f0 04 02 01 3c 00 00 00 3c f8 03 fe 3b c1 0f fc 3b
       0.007874016 0.0078125 0.007751938 0.0076923077
000200 2d 23 fa 3b 10 3e f8 3b 3e 60 f6 3b 8d 89 f4 3b
       0.007633588 0.007575758 0.007518797 0.0074626864
000210 d6 b9 f2 3b f1 f0 f0 3b b7 2e ef 3b 04 73 ed 3b
       0.0074074073 0.007352941 0.00729927 0.007246377
000220 b3 bd eb 3b a1 0e ea 3b ac 65 e8 3b b4 c2 e6 3b
       0.007194245 0.007142857 0.0070921984 0.0070422534
000230 98 25 e5 3b 39 8e e3 3b 78 fc e1 3b 38 70 e0 3b
       0.006993007 0.0069444445 0.0068965517 0.006849315
000240 5c e9 de 3b c9 67 dd 3b 62 eb db 3b 0e 74 da 3b
       0.006802721 0.006756757 0.0067114094 0.006666667
000250 b2 01 d9 3b 36 94 d7 3b 81 2b d6 3b 7b c7 d4 3b
       0.0066225166 0.0065789474 0.006535948 0.0064935065
000260 0d 68 d3 3b 21 0d d2 3b a0 b6 d0 3b 75 64 cf 3b
       0.006451613 0.0064102565 0.006369427 0.006329114
000270 8a 16 ce 3b cd cc cc 3b 28 87 cb 3b 88 45 ca 3b
       0.006289308 0.00625 0.0062111802 0.0061728396
000280 da 07 c9 3b 0c ce c7 3b 0c 98 c6 3b c8 65 c5 3b
       0.006134969 0.0060975607 0.006060606 0.006024096
000290 30 37 c4 3b 31 0c c3 3b bc e4 c1 3b c1 c0 c0 3b
       0.005988024 0.005952381 0.00591716 0.005882353
0002a0 30 a0 bf 3b fa 82 be 3b 10 69 bd 3b 64 52 bc 3b
       0.0058479533 0.0058139535 0.0057803467 0.0057471264
0002b0 e7 3e bb 3b 8c 2e ba 3b 44 21 b9 3b 03 17 b8 3b
       0.0057142857 0.0056818184 0.0056497175 0.0056179776
0002c0 bb 0f b7 3b 61 0b b6 3b e7 09 b5 3b 41 0b b4 3b
       0.005586592 0.0055555557 0.005524862 0.0054945056
0002d0 63 0f b3 3b 43 16 b2 3b d4 1f b1 3b 0b 2c b0 3b
       0.0054644807 0.0054347827 0.0054054055 0.005376344
0002e0 de 3a af 3b 41 4c ae 3b 2b 60 ad 3b 92 76 ac 3b
       0.0053475937 0.005319149 0.005291005 0.005263158
0002f0 6a 8f ab 3b ab aa aa 3b 4a c8 a9 3b 3f e8 a8 3b
       0.005235602 0.0052083335 0.005181347 0.005154639
000300 81 0a a8 3b 05 2f a7 3b c4 55 a6 3b b5 7e a5 3b
       0.0051282053 0.0051020407 0.005076142 0.005050505
000310 cf a9 a4 3b 0a d7 a3 3b 5e 06 a3 3b c3 37 a2 3b
       0.0050251256 0.005 0.0049751243 0.004950495
000320 31 6b a1 3b a1 a0 a0 3b 0a d8 9f 3b 66 11 9f 3b
       0.0049261083 0.004901961 0.004878049 0.004854369
000330 ad 4c 9e 3b d9 89 9d 3b e1 c8 9c 3b c1 09 9c 3b
       0.004830918 0.0048076925 0.004784689 0.004761905
000340 70 4c 9b 3b e8 90 9a 3b 23 d7 99 3b 1a 1f 99 3b
       0.0047393367 0.004716981 0.0046948357 0.004672897
000350 c8 68 98 3b 26 b4 97 3b 2e 01 97 3b da 4f 96 3b
       0.004651163 0.0046296297 0.004608295 0.0045871558
000360 25 a0 95 3b 09 f2 94 3b 81 45 94 3b 86 9a 93 3b
       0.00456621 0.0045454544 0.004524887 0.0045045046
000370 14 f1 92 3b 25 49 92 3b b4 a2 91 3b bc fd 90 3b
       0.004484305 0.004464286 0.0044444446 0.0044247787
000380 38 5a 90 3b 24 b8 8f 3b 7a 17 8f 3b 35 78 8e 3b
       0.004405286 0.004385965 0.0043668123 0.004347826
000390 52 da 8d 3b cb 3d 8d 3b 9c a2 8c 3b c1 08 8c 3b
       0.0043290043 0.004310345 0.0042918455 0.0042735045
0003a0 34 70 8b 3b f3 d8 8a 3b f8 42 8a 3b 41 ae 89 3b
       0.004255319 0.004237288 0.004219409 0.004201681
0003b0 c7 1a 89 3b 89 88 88 3b 81 f7 87 3b ab 67 87 3b
       0.0041841003 0.004166667 0.004149378 0.004132231
0003c0 05 d9 86 3b 8a 4b 86 3b 37 bf 85 3b 08 34 85 3b
       0.004115226 0.0040983604 0.0040816325 0.0040650405
0003d0 fa a9 84 3b 08 21 84 3b 30 99 83 3b 6f 12 83 3b
       0.004048583 0.004032258 0.004016064 0.004
0003e0 c0 8c 82 3b 21 08 82 3b 8e 84 81 3b 04 02 81 3b
       0.003984064 0.003968254 0.0039525693 0.003937008
0003f0 81 80 80 3b 00 00 80 3b ff 00 7f 3b f8 03 7e 3b
       0.003921569 0.00390625 0.0038910506 0.003875969

fc1.weight f4 [300, 10]
000000 ab aa aa 3e 00 00 80 3e cd cc 4c 3e ab aa 2a 3e
       0.33333334 0.25 0.2 0.16666667
000010 25 49 12 3e 00 00 00 3e 39 8e e3 3d cd cc cc 3d
       0.14285715 0.125 0.11111111 0.1
000020 8c 2e ba 3d ab aa aa 3d d9 89 9d 3d 25 49 92 3d
       0.09090909 0.083333336 0.07692308 0.071428575
000030 89 88 88 3d 00 00 80 3d f1 f0 70 3d 39 8e 63 3d
       0.06666667 0.0625 0.05882353 0.055555556
000040 36 94 57 3d cd cc 4c 3d 31 0c 43 3d 8c 2e 3a 3d
       0.05263158 0.05 0.04761905 0.045454547
000050 43 16 32 3d ab aa 2a 3d 0a d7 23 3d d9 89 1d 3d
       0.04347826 0.041666668 0.04 0.03846154
000060 26 b4 17 3d 25 49 12 3d cb 3d 0d 3d 89 88 08 3d
       0.037037037 0.035714287 0.03448276 0.033333335
000070 08 21 04 3d 00 00 00 3d 10 3e f8 3c f1 f0 f0 3c
       0.032258064 0.03125 0.030303031 0.029411765
000080 a1 0e ea 3c 39 8e e3 3c c9 67 dd 3c 36 94 d7 3c
       0.028571429 0.027777778 0.027027028 0.02631579
000090 21 0d d2 3c cd cc cc 3c 0c ce c7 3c 31 0c c3 3c
       0.025641026 0.025 0.024390243 0.023809524
0000a0 fa 82 be 3c 8c 2e ba 3c 61 0b b6 3c 43 16 b2 3c
       0.023255814 0.022727273 0.022222223 0.02173913
0000b0 41 4c ae 3c ab aa aa 3c 05 2f a7 3c 0a d7 a3 3c
       0.021276595 0.020833334 0.020408163 0.02
0000c0 a1 a0 a0 3c d9 89 9d 3c e8 90 9a 3c 26 b4 97 3c
       0.019607844 0.01923077 0.018867925 0.018518519
0000d0 09 f2 94 3c 25 49 92 3c 24 b8 8f 3c cb 3d 8d 3c
       0.018181818 0.017857144 0.01754386 0.01724138
0000e0 f3 d8 8a 3c 89 88 88 3c 8a 4b 86 3c 08 21 84 3c
       0.016949153 0.016666668 0.016393442 0.016129032
0000f0 21 08 82 3c 00 00 80 3c c1 0f 7c 3c 10 3e 78 3c
       0.015873017 0.015625 0.015384615 0.015151516
000100 8d 89 74 3c f1 f0 70 3c 04 73 6d 3c a1 0e 6a 3c
       0.014925373 0.014705882 0.014492754 0.014285714
000110 b4 c2 66 3c 39 8e 63 3c 38 70 60 3c c9 67 5d 3c
       0.014084507 0.013888889 0.01369863 0.013513514
000120 0e 74 5a 3c 36 94 57 3c 7b c7 54 3c 21 0d 52 3c
       0.013333334 0.013157895 0.012987013 0.012820513
000130 75 64 4f 3c cd cc 4c 3c 88 45 4a 3c 0c ce 47 3c
       0.012658228 0.0125 0.012345679 0.0121951215
000140 c8 65 45 3c 31 0c 43 3c c1 c0 40 3c fa 82 3e 3c
       0.012048192 0.011904762 0.011764706 0.011627907
000150 64 52 3c 3c 8c 2e 3a 3c 03 17 38 3c 61 0b 36 3c
       0.011494253 0.011363637 0.011235955 0.011111111
000160 41 0b 34 3c 43 16 32 3c 0b 2c 30 3c 41 4c 2e 3c
       0.010989011 0.010869565 0.010752688 0.010638298
000170 92 76 2c 3c ab aa 2a 3c 3f e8 28 3c 05 2f 27 3c
       0.010526316 0.010416667 0.010309278 0.010204081
000180 b5 7e 25 3c 0a d7 23 3c c3 37 22 3c a1 a0 20 3c
       0.01010101 0.01 0.00990099 0.009803922
000190 66 11 1f 3c d9 89 1d 3c c1 09 1c 3c e8 90 1a 3c
       0.009708738 0.009615385 0.00952381 0.009433962
0001a0 1a 1f 19 3c 26 b4 17 3c da 4f 16 3c 09 f2 14 3c
       0.009345794 0.009259259 0.0091743115 0.009090909
0001b0 86 9a 13 3c 25 49 12 3c bc fd 10 3c 24 b8 0f 3c
       0.009009009 0.008928572 0.0088495575 0.00877193
0001c0 35 78 0e 3c cb 3d 0d 3c c1 08 0c 3c f3 d8 0a 3c
       0.008695652 0.00862069 0.008547009 0.008474576
0001d0 41 ae 09 3c 89 88 08 3c ab 67 07 3c 8a 4b 06 3c
       0.008403362 0.008333334 0.008264462 0.008196721
0001e0 08 34 05 3c 08 21 04 3c 6f 12 03 3c 21 08 02 3c
       0.008130081 0.008064516 0.008 0.007936508
0001f0 04 02 01 3c 00 00 00 3c f8 03 fe 3b c1 0f fc 3b
       0.007874016 0.0078125 0.007751938 0.0076923077
000200 2d 23 fa 3b 10 3e f8 3b 3e 60 f6 3b 8d 89 f4 3b
       0.007633588 0.007575758 0.007518797 0.0074626864
000210 d6 b9 f2 3b f1 f0 f0 3b b7 2e ef 3b 04 73 ed 3b
       0.0074074073 0.007352941 0.00729927 0.007246377
000220 b3 bd eb 3b a1 0e ea 3b ac 65 e8 3b b4 c2 e6 3b
       0.007194245 0.007142857 0.0070921984 0.0070422534
000230 98 25 e5 3b 39 8e e3 3b 78 fc e1 3b 38 70 e0 3b
       0.006993007 0.0069444445 0.0068965517 0.006849315
000240 5c e9 de 3b c9 67 dd 3b 62 eb db 3b 0e 74 da 3b
       0.006802721 0.006756757 0.0067114094 0.006666667
000250 b2 01 d9 3b 36 94 d7 3b 81 2b d6 3b 7b c7 d4 3b
       0.0066225166 0.0065789474 0.006535948 0.0064935065
000260 0d 68 d3 3b 21 0d d2 3b a0 b6 d0 3b 75 64 cf 3b
       0.006451613 0.0064102565 0.006369427 0.006329114
000270 8a 16 ce 3b cd cc cc 3b 28 87 cb 3b 88 45 ca 3b
       0.006289308 0.00625 0.0062111802 0.0061728396
000280 da 07 c9 3b 0c ce c7 3b 0c 98 c6 3b c8 65 c5 3b
       0.006134969 0.0060975607 0.006060606 0.006024096
000290 30 37 c4 3b 31 0c c3 3b bc e4 c1 3b c1 c0 c0 3b
       0.005988024 0.005952381 0.00591716 0.005882353
0002a0 30 a0 bf 3b fa 82 be 3b 10 69 bd 3b 64 52 bc 3b
       0.0058479533 0.0058139535 0.0057803467 0.0057471264
0002b0 e7 3e bb 3b 8c 2e ba 3b 44 21 b9 3b 03 17 b8 3b
       0.0057142857 0.0056818184 0.0056497175 0.0056179776
0002c0 bb 0f b7 3b 61 0b b6 3b e7 09 b5 3b 41 0b b4 3b
       0.005586592 0.0055555557 0.005524862 0.0054945056
0002d0 63 0f b3 3b 43 16 b2 3b d4 1f b1 3b 0b 2c b0 3b
       0.0054644807 0.0054347827 0.0054054055 0.005376344
0002e0 de 3a af 3b 41 4c ae 3b 2b 60 ad 3b 92 76 ac 3b
       0.0053475937 0.005319149 0.005291005 0.005263158
0002f0 6a 8f ab 3b ab aa aa 3b 4a c8 a9 3b 3f e8 a8 3b
       0.005235602 0.0052083335 0.005181347 0.005154639
000300 81 0a a8 3b 05 2f a7 3b c4 55 a6 3b b5 7e a5 3b
       0.0051282053 0.0051020407 0.005076142 0.005050505
000310 cf a9 a4 3b 0a d7 a3 3b 5e 06 a3 3b c3 37 a2 3b
       0.0050251256 0.005 0.0049751243 0.004950495
000320 31 6b a1 3b a1 a0 a0 3b 0a d8 9f 3b 66 11 9f 3b
       0.0049261083 0.004901961 0.004878049 0.004854369
000330 ad 4c 9e 3b d9 89 9d 3b e1 c8 9c 3b c1 09 9c 3b
       0.004830918 0.0048076925 0.004784689 0.004761905
000340 70 4c 9b 3b e8 90 9a 3b 23 d7 99 3b 1a 1f 99 3b
       0.0047393367 0.004716981 0.0046948357 0.004672897
000350 c8 68 98 3b 26 b4 97 3b 2e 01 97 3b da 4f 96 3b
       0.004651163 0.0046296297 0.004608295 0.0045871558
000360 25 a0 95 3b 09 f2 94 3b 81 45 94 3b 86 9a 93 3b
       0.00456621 0.0045454544 0.004524887 0.0045045046
000370 14 f1 92 3b 25 49 92 3b b4 a2 91 3b bc fd 90 3b
       0.004484305 0.004464286 0.0044444446 0.0044247787
000380 38 5a 90 3b 24 b8 8f 3b 7a 17 8f 3b 35 78 8e 3b
       0.004405286 0.004385965 0.0043668123 0.004347826
000390 52 da 8d 3b cb 3d 8d 3b 9c a2 8c 3b c1 08 8c 3b
       0.0043290043 0.004310345 0.0042918455 0.0042735045
0003a0 34 70 8b 3b f3 d8 8a 3b f8 42 8a 3b 41 ae 89 3b
       0.004255319 0.004237288 0.004219409 0.004201681
0003b0 c7 1a 89 3b 89 88 88 3b 81 f7 87 3b ab 67 87 3b
       0.0041841003 0.004166667 0.004149378 0.004132231
0003c0 05 d9 86 3b 8a 4b 86 3b 37 bf 85 3b 08 34 85 3b
       0.004115226 0.0040983604 0.0040816325 0.0040650405
0003d0 fa a9 84 3b 08 21 84 3b 30 99 83 3b 6f 12 83 3b
       0.004048583 0.004032258 0.004016064 0.004
0003e0 c0 8c 82 3b 21 08 82 3b 8e 84 81 3b 04 02 81 3b
       0.003984064 0.003968254 0.0039525693 0.003937008
0003f0 81 80 80 3b 00 00 80 3b ff 00 7f 3b f8 03 7e 3b
       0.003921569 0.00390625 0.0038910506 0.003875969

fc2.bias f4 [6]
000000 00 00 80 3f 00 00 00 3f ab aa aa 3e 00 00 80 3e
       1.0 0.5 0.33333334 0.25
000010 cd cc 4c 3e ab aa 2a 3e
       0.2 0.16666667

fc2.weight f4 [6, 300]
000000 00 00 80 3f 00 00 00 3f ab aa aa 3e 00 00 80 3e
       1.0 0.5 0.33333334 0.25
000010 cd cc 4c 3e ab aa 2a 3e 25 49 12 3e 00 00 00 3e
       0.2 0.16666667 0.14285715 0.125
000020 39 8e e3 3d cd cc cc 3d 8c 2e ba 3d ab aa aa 3d
       0.11111111 0.1 0.09090909 0.083333336
000030 d9 89 9d 3d 25 49 92 3d 89 88 88 3d 00 00 80 3d
       0.07692308 0.071428575 0.06666667 0.0625
000040 f1 f0 70 3d 39 8e 63 3d 36 94 57 3d cd cc 4c 3d
       0.05882353 0.055555556 0.05263158 0.05
000050 31 0c 43 3d 8c 2e 3a 3d 43 16 32 3d ab aa 2a 3d
       0.04761905 0.045454547 0.04347826 0.041666668
000060 0a d7 23 3d d9 89 1d 3d 26 b4 17 3d 25 49 12 3d
       0.04 0.03846154 0.037037037 0.035714287
000070 cb 3d 0d 3d 89 88 08 3d 08 21 04 3d 00 00 00 3d
       0.03448276 0.033333335 0.032258064 0.03125
000080 10 3e f8 3c f1 f0 f0 3c a1 0e ea 3c 39 8e e3 3c
       0.030303031 0.029411765 0.028571429 0.027777778
000090 c9 67 dd 3c 36 94 d7 3c 21 0d d2 3c cd cc cc 3c
       0.027027028 0.02631579 0.025641026 0.025
0000a0 0c ce c7 3c 31 0c c3 3c fa 82 be 3c 8c 2e ba 3c
       0.024390243 0.023809524 0.023255814 0.022727273
0000b0 61 0b b6 3c 43 16 b2 3c 41 4c ae 3c ab aa aa 3c
       0.022222223 0.02173913 0.021276595 0.020833334
0000c0 05 2f a7 3c 0a d7 a3 3c a1 a0 a0 3c d9 89 9d 3c
       0.020408163 0.02 0.019607844 0.01923077
0000d0 e8 90 9a 3c 26 b4 97 3c 09 f2 94 3c 25 49 92 3c
       0.018867925 0.018518519 0.018181818 0.017857144
0000e0 24 b8 8f 3c cb 3d 8d 3c f3 d8 8a 3c 89 88 88 3c
       0.01754386 0.01724138 0.016949153 0.016666668
0000f0 8a 4b 86 3c 08 21 84 3c 21 08 82 3c 00 00 80 3c
       0.016393442 0.016129032 0.015873017 0.015625
000100 c1 0f 7c 3c 10 3e 78 3c 8d 89 74 3c f1 f0 70 3c
       0.015384615 0.015151516 0.014925373 0.014705882
000110 04 73 6d 3c a1 0e 6a 3c b4 c2 66 3c 39 8e 63 3c
       0.014492754 0.014285714 0.014084507 0.013888889
000120 38 70 60 3c c9 67 5d 3c 0e 74 5a 3c 36 94 57 3c
       0.01369863 0.013513514 0.013333334 0.013157895
000130 7b c7 54 3c 21 0d 52 3c 75 64 4f 3c cd cc 4c 3c
       0.012987013 0.012820513 0.012658228 0.0125
000140 88 45 4a 3c 0c ce 47 3c c8 65 45 3c 31 0c 43 3c
       0.012345679 0.0121951215 0.012048192 0.011904762
000150 c1 c0 40 3c fa 82 3e 3c 64 52 3c 3c 8c 2e 3a 3c
       0.011764706 0.011627907 0.011494253 0.011363637
000160 03 17 38 3c 61 0b 36 3c 41 0b 34 3c 43 16 32 3c
       0.011235955 0.011111111 0.010989011 0.010869565
000170 0b 2c 30 3c 41 4c 2e 3c 92 76 2c 3c ab aa 2a 3c
       0.010752688 0.010638298 0.010526316 0.010416667
000180 3f e8 28 3c 05 2f 27 3c b5 7e 25 3c 0a d7 23 3c
       0.010309278 0.010204081 0.01010101 0.01
000190 c3 37 22 3c a1 a0 20 3c 66 11 1f 3c d9 89 1d 3c
       0.00990099 0.009803922 0.009708738 0.009615385
0001a0 c1 09 1c 3c e8 90 1a 3c 1a 1f 19 3c 26 b4 17 3c
       0.00952381 0.009433962 0.009345794 0.009259259
0001b0 da 4f 16 3c 09 f2 14 3c 86 9a 13 3c 25 49 12 3c
       0.0091743115 0.009090909 0.009009009 0.008928572
0001c0 bc fd 10 3c 24 b8 0f 3c 35 78 0e 3c cb 3d 0d 3c
       0.0088495575 0.00877193 0.008695652 0.00862069
0001d0 c1 08 0c 3c f3 d8 0a 3c 41 ae 09 3c 89 88 08 3c
       0.008547009 0.008474576 0.008403362 0.008333334
0001e0 ab 67 07 3c 8a 4b 06 3c 08 34 05 3c 08 21 04 3c
       0.008264462 0.008196721 0.008130081 0.008064516
0001f0 6f 12 03 3c 21 08 02 3c 04 02 01 3c 00 00 00 3c
       0.008 0.007936508 0.007874016 0.0078125
000200 f8 03 fe 3b c1 0f fc 3b 2d 23 fa 3b 10 3e f8 3b
       0.007751938 0.0076923077 0.007633588 0.007575758
000210 3e 60 f6 3b 8d 89 f4 3b d6 b9 f2 3b f1 f0 f0 3b
       0.007518797 0.0074626864 0.0074074073 0.007352941
000220 b7 2e ef 3b 04 73 ed 3b b3 bd eb 3b a1 0e ea 3b
       0.00729927 0.007246377 0.007194245 0.007142857
000230 ac 65 e8 3b b4 c2 e6 3b 98 25 e5 3b 39 8e e3 3b
       0.0070921984 0.0070422534 0.006993007 0.0069444445
000240 78 fc e1 3b 38 70 e0 3b 5c e9 de 3b c9 67 dd 3b
       0.0068965517 0.006849315 0.006802721 0.006756757
000250 62 eb db 3b 0e 74 da 3b b2 01 d9 3b 36 94 d7 3b
       0.0067114094 0.006666667 0.0066225166 0.0065789474
000260 81 2b d6 3b 7b c7 d4 3b 0d 68 d3 3b 21 0d d2 3b
       0.006535948 0.0064935065 0.006451613 0.0064102565
000270 a0 b6 d0 3b 75 64 cf 3b 8a 16 ce 3b cd cc cc 3b
       0.006369427 0.006329114 0.006289308 0.00625
000280 28 87 cb 3b 88 45 ca 3b da 07 c9 3b 0c ce c7 3b
       0.0062111802 0.0061728396 0.006134969 0.0060975607
000290 0c 98 c6 3b c8 65 c5 3b 30 37 c4 3b 31 0c c3 3b
       0.006060606 0.006024096 0.005988024 0.005952381
0002a0 bc e4 c1 3b c1 c0 c0 3b 30 a0 bf 3b fa 82 be 3b
       0.00591716 0.005882353 0.0058479533 0.0058139535
0002b0 10 69 bd 3b 64 52 bc 3b e7 3e bb 3b 8c 2e ba 3b
       0.0057803467 0.0057471264 0.0057142857 0.0056818184
0002c0 44 21 b9 3b 03 17 b8 3b bb 0f b7 3b 61 0b b6 3b
       0.0056497175 0.0056179776 0.005586592 0.0055555557
0002d0 e7 09 b5 3b 41 0b b4 3b 63 0f b3 3b 43 16 b2 3b
       0.005524862 0.0054945056 0.0054644807 0.0054347827
0002e0 d4 1f b1 3b 0b 2c b0 3b de 3a af 3b 41 4c ae 3b
       0.0054054055 0.005376344 0.0053475937 0.005319149
0002f0 2b 60 ad 3b 92 76 ac 3b 6a 8f ab 3b ab aa aa 3b
       0.005291005 0.005263158 0.005235602 0.0052083335
000300 4a c8 a9 3b 3f e8 a8 3b 81 0a a8 3b 05 2f a7 3b
       0.005181347 0.005154639 0.0051282053 0.0051020407
000310 c4 55 a6 3b b5 7e a5 3b cf a9 a4 3b 0a d7 a3 3b
       0.005076142 0.005050505 0.0050251256 0.005
000320 5e 06 a3 3b c3 37 a2 3b 31 6b a1 3b a1 a0 a0 3b
       0.0049751243 0.004950495 0.0049261083 0.004901961
000330 0a d8 9f 3b 66 11 9f 3b ad 4c 9e 3b d9 89 9d 3b
       0.004878049 0.004854369 0.004830918 0.0048076925
000340 e1 c8 9c 3b c1 09 9c 3b 70 4c 9b 3b e8 90 9a 3b
       0.004784689 0.004761905 0.0047393367 0.004716981
000350 23 d7 99 3b 1a 1f 99 3b c8 68 98 3b 26 b4 97 3b
       0.0046948357 0.004672897 0.004651163 0.0046296297
000360 2e 01 97 3b da 4f 96 3b 25 a0 95 3b 09 f2 94 3b
       0.004608295 0.0045871558 0.00456621 0.0045454544
000370 81 45 94 3b 86 9a 93 3b 14 f1 92 3b 25 49 92 3b
       0.004524887 0.0045045046 0.004484305 0.004464286
000380 b4 a2 91 3b bc fd 90 3b 38 5a 90 3b 24 b8 8f 3b
       0.0044444446 0.0044247787 0.004405286 0.004385965
000390 7a 17 8f 3b 35 78 8e 3b 52 da 8d 3b cb 3d 8d 3b
       0.0043668123 0.004347826 0.0043290043 0.004310345
0003a0 9c a2 8c 3b c1 08 8c 3b 34 70 8b 3b f3 d8 8a 3b
       0.0042918455 0.0042735045 0.004255319 0.004237288
0003b0 f8 42 8a 3b 41 ae 89 3b c7 1a 89 3b 89 88 88 3b
       0.004219409 0.004201681 0.0041841003 0.004166667
0003c0 81 f7 87 3b ab 67 87 3b 05 d9 86 3b 8a 4b 86 3b
       0.004149378 0.004132231 0.004115226 0.0040983604
0003d0 37 bf 85 3b 08 34 85 3b fa a9 84 3b 08 21 84 3b
       0.0040816325 0.0040650405 0.004048583 0.004032258
0003e0 30 99 83 3b 6f 12 83 3b c0 8c 82 3b 21 08 82 3b
       0.004016064 0.004 0.003984064 0.003968254
0003f0 8e 84 81 3b 04 02 81 3b 81 80 80 3b 00 00 80 3b
       0.0039525693 0.003937008 0.003921569 0.00390625
