benchmarks/SubgridLES/weights_SubgridLESNet.safetensors (safetensors, 408 bytes, 2 tensors)

fc1.bias f4 [6]
0	0x3eaaaaab	0.33333334
1	0x3e800000	0.25
2	0x3e4ccccd	0.2
3	0x3e2aaaab	0.16666667
4	0x3e124925	0.14285715
5	0x3e000000	0.125

fc1.weight f4 [6, 10]
0	0x3eaaaaab	0.33333334
1	0x3e800000	0.25
2	0x3e4ccccd	0.2
3	0x3e2aaaab	0.16666667
4	0x3e124925	0.14285715
5	0x3e000000	0.125
6	0x3de38e39	0.11111111
7	0x3dcccccd	0.1
8	0x3dba2e8c	0.09090909
9	0x3daaaaab	0.083333336
10	0x3d9d89d9	0.07692308
11	0x3d924925	0.071428575
12	0x3d888889	0.06666667
13	0x3d800000	0.0625
14	0x3d70f0f1	0.05882353
15	0x3d638e39	0.055555556
16	0x3d579436	0.05263158
17	0x3d4ccccd	0.05
18	0x3d430c31	0.04761905
19	0x3d3a2e8c	0.045454547
20	0x3d321643	0.04347826
21	0x3d2aaaab	0.041666668
22	0x3d23d70a	0.04
23	0x3d1d89d9	0.03846154
24	0x3d17b426	0.037037037
25	0x3d124925	0.035714287
26	0x3d0d3dcb	0.03448276
27	0x3d088889	0.033333335
28	0x3d042108	0.032258064
29	0x3d000000	0.03125
30	0x3cf83e10	0.030303031
31	0x3cf0f0f1	0.029411765
32	0x3cea0ea1	0.028571429
33	0x3ce38e39	0.027777778
34	0x3cdd67c9	0.027027028
35	0x3cd79436	0.02631579
36	0x3cd20d21	0.025641026
37	0x3ccccccd	0.025
38	0x3cc7ce0c	0.024390243
39	0x3cc30c31	0.023809524
40	0x3cbe82fa	0.023255814
41	0x3cba2e8c	0.022727273
42	0x3cb60b61	0.022222223
43	0x3cb21643	0.02173913
44	0x3cae4c41	0.021276595
45	0x3caaaaab	0.020833334
46	0x3ca72f05	0.020408163
47	0x3ca3d70a	0.02
48	0x3ca0a0a1	0.019607844
49	0x3c9d89d9	0.01923077
50	0x3c9a90e8	0.018867925
51	0x3c97b426	0.018518519
52	0x3c94f209	0.018181818
53	0x3c924925	0.017857144
54	0x3c8fb824	0.01754386
55	0x3c8d3dcb	0.01724138
56	0x3c8ad8f3	0.016949153
57	0x3c888889	0.016666668
58	0x3c864b8a	0.016393442
59	0x3c842108	0.016129032
