benchmarks/DeepRLEddy/output_DeepRLEddyNet.safetensors (safetensors, 16464 bytes, 1 tensors)

output f4 [4096]
0.4486807 0.44709203 0.45160365 0.45168272 0.44991884 0.44629613 0.44976395 0.44881296
0.44884822 0.45130342 0.44995126 0.45022687 0.4521859 0.4540448 0.44632882 0.44630763
0.45224854 0.4549012 0.45203355 0.45077726 0.4535389 0.4531419 0.44880047 0.4498193
0.4517655 0.4534238 0.44883236 0.4518573 0.44879615 0.4508577 0.44748506 0.45283318
0.45141006 0.44755355 0.45285276 0.45039076 0.4532175 0.4498752 0.44681796 0.45264363
0.4512105 0.4516537 0.45344988 0.44787413 0.45222434 0.45023507 0.44953012 0.44872698
0.44895685 0.44625336 0.45296994 0.45029038 0.4476241 0.44459185 0.4486058 0.45003098
0.44825786 0.45250255 0.4529981 0.44794706 0.44966295 0.45082888 0.44939128 0.44884592
0.45161024 0.45215985 0.45061296 0.44963306 0.44781932 0.4478583 0.4501863 0.4527833
0.44769877 0.4485076 0.449116 0.4485525 0.45162177 0.4481452 0.45313415 0.45198512
0.45319745 0.45269302 0.44938222 0.4534082 0.44702464 0.45339733 0.45052737 0.4457322
0.45030144 0.446259 0.44954768 0.45155984 0.44979656 0.44978788 0.45108783 0.45158648
0.44914094 0.44939482 0.45210662 0.4470731 0.44920367 0.44789934 0.45002747 0.44960377
0.45011365 0.45362836 0.44735697 0.44473362 0.45035216 0.450686 0.4451828 0.45373666
0.45070228 0.45355767 0.44957417 0.44855383 0.4484515 0.44759166 0.44909963 0.45208004
0.4476858 0.44580215 0.4542371 0.44862264 0.45323557 0.44937778 0.44867456 0.4499874
0.44770756 0.4512073 0.448856 0.44748798 0.45143074 0.45098487 0.445829 0.4514688
0.44939426 0.4511359 0.44805425 0.44819728 0.4532288 0.4520029 0.44975972 0.44942227
0.4509968 0.4455053 0.44534868 0.44693148 0.4487606 0.44875017 0.45190924 0.44771293
0.44747514 0.44437635 0.45436257 0.45373136 0.44811782 0.45197466 0.45156163 0.45172226
0.45087516 0.45256388 0.44984707 0.4494268 0.44809753 0.44793516 0.45257944 0.4551365
0.45172364 0.45474258 0.4510182 0.44957528 0.44865394 0.45004976 0.44992062 0.4511039
0.45456657 0.45203334 0.4457532 0.44933575 0.44590214 0.44892144 0.4513116 0.45085683
0.4501061 0.44773534 0.45134422 0.45219257 0.44431865 0.4458253 0.45281497 0.4493334
0.44920394 0.44706848 0.45146665 0.45247403 0.45127425 0.44912386 0.4487412 0.45145214
0.44840777 0.44921243 0.45297948 0.45297408 0.45230716 0.44977814 0.4502443 0.4500987
0.4445921 0.44745496 0.44609505 0.44673097 0.44797763 0.44904608 0.45439643 0.45124036
0.45328313 0.4473575 0.45170313 0.449103 0.45043167 0.45021144 0.45078903 0.44905415
0.44628364 0.44779676 0.4504233 0.4507238 0.4515348 0.44992656 0.44779778 0.45315424
0.449187 0.44874036 0.45072728 0.44879425 0.44971222 0.4491591 0.44761577 0.4490036
0.45213252 0.4483081 0.4504655 0.45031703 0.45037442 0.4515638 0.45262402 0.44786668
0.45099267 0.4515781 0.4515613 0.44942728 0.44999415 0.44787973 0.44963828 0.45256212
00000000: 7ab9 e53e 3fe9 e43e 9838 e73e f542 e73e
00000010: c35b e63e ed80 e43e 7647 e63e d0ca e53e
00000020: 6fcf e53e 3e11 e73e 0360 e63e 2384 e63e
00000030: e984 e73e 8f78 e83e 3685 e43e 6f82 e43e
00000040: 1f8d e73e cfe8 e83e f170 e73e 47cc e63e
00000050: 4036 e83e 3702 e83e 2dc9 e53e b74e e63e
00000060: cf4d e73e 2a27 e83e 5bcd e53e d759 e73e
00000070: 9cc8 e53e d2d6 e63e c31c e53e c0d9 e73e
00000080: 381f e73e bd25 e53e 51dc e73e 9e99 e63e
00000090: 200c e83e 0b56 e63e 53c5 e43e e8c0 e73e
000000a0: 1005 e73e 273f e73e 952a e83e c24f e53e
000000b0: f389 e73e 3685 e63e d028 e63e 8bbf e53e
000000c0: acdd e53e 527b e43e adeb e73e 768c e63e
000000d0: fc2e e53e 8ba1 e33e a9af e53e 766a e63e
000000e0: 0e82 e53e 6aae e73e 5eef e73e 5159 e53e
000000f0: 393a e63e 0bd3 e63e 9d16 e63e 22cf e53e
00000100: 7539 e73e 7f81 e73e beb6 e63e 4e36 e63e
00000110: 9348 e53e af4d e53e d27e e63e 36d3 e73e
00000120: c638 e53e caa2 e53e 88f2 e53e aca8 e53e
00000130: f83a e73e 4a73 e53e 3301 e83e 986a e73e
00000140: 7f09 e83e 61c7 e73e 6d15 e63e 1f25 e83e
00000150: 6ae0 e43e b223 e83e 86ab e63e 0337 e43e
00000160: e98d e63e 0f7c e43e 1d2b e63e da32 e73e
00000170: bc4b e63e 994a e63e fcf4 e63e 5836 e73e
00000180: cdf5 e53e 1417 e63e 857a e73e c4e6 e43e
00000190: 06fe e53e 1053 e53e 006a e63e 7732 e63e
000001a0: 4c75 e63e fa41 e83e f90b e53e 20b4 e33e
000001b0: 8f94 e63e 51c0 e63e 00ef e33e 2c50 e83e
000001c0: 73c2 e63e b638 e83e 962e e63e d9a8 e53e
000001d0: 6f9b e53e bc2a e53e 63f0 e53e 0977 e73e
000001e0: 1337 e53e 2e40 e43e c491 e83e deb1 e53e
000001f0: 7e0e e83e d814 e63e acb8 e53e c064 e63e
00000200: ed39 e53e a504 e73e 74d0 e53e 251d e53e
00000210: ee21 e73e 7de7 e63e b343 e43e eb26 e73e
00000220: 0117 e63e 49fb e63e 5e67 e53e 1d7a e53e
00000230: 9b0d e83e ed6c e73e e846 e63e ad1a e63e
00000240: 0de9 e63e 4519 e43e be04 e43e 34d4 e43e
00000250: f3c3 e53e 95c2 e53e a660 e73e a13a e53e
00000260: 761b e53e 4c85 e33e 36a2 e83e 7a4f e83e
00000270: b36f e53e 3969 e73e 1633 e73e 2448 e73e
00000280: 1cd9 e63e 74b6 e73e 5b52 e63e 451b e63e
00000290: 0a6d e53e c257 e53e 7eb8 e73e a707 e93e
000002a0: 5248 e73e 05d4 e83e dceb e63e bb2e e63e
000002b0: f8b5 e53e ec6c e63e ff5b e63e 17f7 e63e
000002c0: f3bc e83e ea70 e73e c339 e43e 560f e63e
000002d0: 494d e43e 08d9 e53e 5012 e73e b5d6 e63e
000002e0: 4f74 e63e 913d e53e 9716 e73e c985 e73e
000002f0: bc7d e33e 3743 e43e 5dd7 e73e 070f e63e
00000300: 0ffe e53e 29e6 e43e a326 e73e adaa e73e
00000310: 6b0d e73e 90f3 e53e 68c1 e53e bc24 e73e
00000320: b495 e53e 2cff e53e edec e73e 38ec e73e
00000330: ce94 e73e 5249 e63e 6c86 e63e 5673 e63e
00000340: 93a1 e33e d118 e53e 9266 e43e ecb9 e43e
00000350: 535d e53e 5ee9 e53e a6a6 e83e fa08 e73e
00000360: ba14 e83e 0b0c e53e a245 e73e d4f0 e53e
00000370: fb9e e63e 1d82 e63e d2cd e63e 6dea e53e
00000380: 4a7f e43e 9e45 e53e e29d e63e 45c5 e63e
00000390: 922f e73e c65c e63e c045 e53e d503 e83e
000003a0: d7fb e53e 4cc1 e53e bac5 e63e 5cc8 e53e
000003b0: ae40 e63e 2ef8 e53e e52d e53e cde3 e53e
000003c0: ea7d e73e a488 e53e 6aa3 e63e f48f e63e
000003d0: 7a97 e63e 5f33 e73e 56be e73e c84e e53e
000003e0: 83e8 e63e 3f35 e73e 0b33 e73e 551b e63e
000003f0: a265 e63e 7e50 e53e fd36 e63e 39b6 e73e
