benchmarks/mnist/mnist_fugaku.pt (torch, 46624 bytes, 6 tensors)

weight f4 [8, 1, 3, 3]
00000000: e5df 713f ac0e a03f 977a 673f 9fd4 44be
00000010: 7a0b 8f3d 2a91 783d 0f68 b9bf b236 b2bf
00000020: 358d e6be ebb0 b7bc b61d 5abe f065 d33d
00000030: 0aa9 8fbe 4055 14be 1a6a 9dbe 4339 82be
00000040: 6b3f b0bd 52f1 a1be 3b84 babd b885 41be
00000050: 5ea4 84be a36b 75be 82f7 87be 17d1 92be
00000060: 0365 a1be 9646 d23c 2f64 8ebe fff4 ee3e
00000070: 7554 c03e 5754 cdbd 0486 a03e b329 553f
00000080: f910 133f 7f0a 843e 3a04 323f 733d a63e
00000090: 4ee6 b1be adcd 533e d145 cb3f 6632 213f
000000a0: 25fc 793f d0ff 2f3f b5f0 c93e dd7c 8cbd
000000b0: 5936 dcbe 598a 713f 5cfc b03e ac4c 38bf
000000c0: 1267 413f 20ef 69be d9ec 12bf fe35 a43f
000000d0: 30a2 603f 8ad9 8abe 2b7b 603f cc40 c63e
000000e0: 0aaf c03e 308b e13d 8c9e f93e 018c 703f
000000f0: ed5f 84bf 30f4 65bf 9fc6 01bf 60e8 503f
00000100: 8080 b73d 6e34 c9bf 8136 e33e 7f64 e6bf
00000110: 6d1e 96bd ddc2 b3bf 85ab 2cbf 822d 583e
0.9448226 1.2504478 0.9042143 -0.19221734 0.06984611 0.060685314 -1.4484881 -1.3922942
-0.45029607 -0.022423228 -0.21300396 0.103221774 -0.28058654 -0.14485645 -0.30745012 -0.25434312
-0.08605846 -0.31629425 -0.09107252 -0.18898666 -0.25906652 -0.23966841 -0.2655602 -0.28675148
-0.31522378 0.025668424 -0.2781081 0.46671292 0.37564436 -0.10025852 0.31352246 0.8326675
0.57447773 0.25789258 0.695377 0.32468757 -0.3474602 0.20683928 1.5880681 0.62967527
0.9765037 0.68749714 0.39441457 -0.06859753 -0.43010214 0.94351727 0.34567535 -0.7199199
0.755479 -0.22845125 -0.5739265 1.2828977 0.8774748 -0.27119094 0.8768794 0.3872131
0.37633544 0.11012876 0.48753774 0.9396363 -1.0341774 -0.89825726 -0.50693697 0.81604576
0.08960056 -1.5719125 0.4437752 -1.7999419 -0.07330022 -1.4043843 -0.6744922 0.2111111

bias f4 [8]
00000000: 16f0 373e feb0 13be c3e9 7fbe 9918 b8be
00000010: f085 6ebc 2daa b5bc 58de 49bb 5eac 273f
0.1796268 -0.14422986 -0.24991517 -0.35956267 -0.0145583 -0.022175873 -0.0030802693 0.65497386

weight f4 [16, 8, 3, 3]
00000000: 7163 4cbf be96 aebf 37c6 5fbf 6f1e 75bf
00000010: 24d1 dcbc 9851 0abe f82d 2b3f 95be 943f
00000020: 0d4b 6d3f 602f e4bd cf05 d03d 463e e13d
00000030: 5c22 c6bc 117c c2bd 5486 0ebd 71bb 42bc
00000040: d329 753d a428 c8bc a876 babd 5be1 693d
00000050: efd9 a53c 4607 98bc 0159 c13d 482f a03d
00000060: 81a1 223b df6f af3d ee85 4dbc 3ab9 803d
00000070: f6c4 fdbd c209 103e aae8 babd 8a56 3a3e
00000080: 73cc b73e 13b2 62be 7c20 e2be f571 22bf
00000090: 495e c43c eb53 86be 4ac7 4fbd aa27 58bd
000000a0: 314d ccbd 306d 963e 4f51 c3be 1921 13bd
000000b0: 916b 83be 83b4 f33d 2653 823e 0579 eabd
000000c0: 06ae 3b3e 4343 7f3e c672 573e b434 83bd
000000d0: ce11 91be f07f b1be 11de f0be d5d9 12bf
000000e0: ff1e c6be db98 80be 69b1 ba3e 5651 a1bc
000000f0: 230b 473e 09de 303f 0315 d83e ade0 3e3e
00000100: 935c a2bd 28ae 8dbd 0d9e 90be 98ab 833e
00000110: 576f f5be 84b6 c5be ecbc 123d e160 273f
00000120: 0ac2 873e b30b 70be 9510 f13d 8ae0 ac3e
00000130: 00d0 f8bc 0532 aa3e a830 fcbf bca5 0abf
00000140: 6e16 be3e fa3b 0e3d 5fae 9dbb 263b 88bd
00000150: cbe9 1b3d 580b 5f3d 6020 dcbd f3ac 663d
00000160: af03 743d 9b57 1fbd f068 debd 20b8 563c
00000170: bf0c 893d 4680 c0bb 00cf 41bd 8c43 dabd
00000180: e3d8 a23d e9b1 b53d 7a31 39bd c638 bfbe
00000190: fc56 08bf 42e3 85be 1984 11bf 21a5 c03d
000001a0: 4a13 aa3e 63ce cf3d 12c0 823e 5d54 58be
000001b0: b594 aebd e851 37bf 7a5f 5ebf 9862 58bf
000001c0: c925 8e3e e180 4e3f 5477 fb3e ce36 d73e
000001d0: 8257 a9bd 2427 dcbe f7e6 b6bc 3f45 55be
000001e0: 95ad 01bf ada3 0f3d c2f2 933e ff36 3a3e
000001f0: 72bc 093f 3651 1cba 778e 19be ea54 8ebf
00000200: de3b b9bf 6438 61bd 9790 823d 3fbd e33e
00000210: f716 1dbf 28f2 d3be 7776 e23e 50c1 4e3e
00000220: 836a c73e 31a2 263f 0488 fcbd a01a fb3d
00000230: 683a 99be bc66 5b3d eabf 7ebd e1de a3be
00000240: f42b f23e 71a6 a2be cde0 acbf 8657 323f
00000250: 7e6e 18bf 105d 38be 784f 30be 9dd1 19bf
00000260: e021 6bbe 3692 cb3d 7b29 8a3b 31f2 d4bd
00000270: dfe5 fb3c 635a 47bd eb36 7abd 393b e63d
00000280: 55d3 39bd 269a cc3d 919b a23d c44e 643d
00000290: 54e9 acbd f99d e93c 24e1 d13d bcc4 c2bd
000002a0: 72cc eb3d 0f70 d9bd d0d3 fdbc 32d3 de3e
000002b0: 14a9 7cbf f570 c43e 75d8 e0be 1d57 0fbf
000002c0: 35b8 e33e df6e 0dbe 5b74 e2bd 188c 173e
000002d0: dbff c93e 9dfc 34bf e377 423f 4959 d6bd
000002e0: 4de9 1bbf 6ee1 153f d327 32be 1a4e 06be
000002f0: d4f1 933e 3dbc 413f db0a 73be 3c7d 0bbf
00000300: 716f 233e 3c7e 20bf 7b8a 113e c99b 8ebd
00000310: 7481 243e 8187 143e 2f88 243f 6f9d 8ebe
00000320: 75d3 3bbc 51d3 153f b6c9 5bbf f83b 593d
00000330: d218 a6be c33c 46bf 1423 0fbe b0f7 7ebe
00000340: 936f 943d 6257 a43e 18b7 873e 1b04 b4bb
00000350: d1c3 03bf 8064 803e d169 ff3d 51df 583e
00000360: 0382 0abf 2f91 a3bf 9746 6dbf a59c 0abf
00000370: 4700 9bbf c151 a3bf fdd5 023a b827 3abf
00000380: 4ee7 eebe 3403 803d 30c4 edbd 2887 90bc
00000390: 0638 34bd 83b8 0bbd 646a b5bc a7a3 edbd
000003a0: 9d7f 8fba 5454 4dbd 0d94 d03d c711 023c
000003b0: 607d 1fbd 9cbd f43c fb32 8dbd 3204 e7bd
000003c0: 558e c23d 5179 863c 72e2 c7bd 0efc cbbe
000003d0: 0a82 f73e 7a0a 1f3e 43e4 38be 0ffa 903e
000003e0: ed9f 233e d5db 72be 5968 033f 6e2b 1dbc
000003f0: 619e 94be cb9a 1b3f a955 c53e 31ae cbbe
-0.79839236 -1.3639753 -0.87411827 -0.9574956 -0.026955195 -0.13507688 0.6686702 1.1620661
0.92692643 -0.111418486 0.10157358 0.10998206 -0.024186306 -0.0949632 -0.034796074 -0.01188551
0.05985434 -0.024433441 -0.09104663 0.05709968 0.02024552 -0.018558156 0.09440804 0.07821518
0.0024815502 0.085662596 -0.012544138 0.06285329 -0.12391083 0.14066222 -0.091264084 0.18197075
0.3589817 -0.22138242 -0.4416541 -0.63455135 0.02397074 -0.262359 -0.050727166 -0.0527722
-0.099756606 0.29380178 -0.3814797 -0.035920236 -0.25668004 0.11899664 0.25454062 -0.11448864
0.18328103 0.24928002 0.21039876 -0.06406537 -0.28333896 -0.3466792 -0.47044423 -0.57363635
-0.38695523 -0.2511662 0.36463478 -0.019692104 0.19437842 0.690888 0.4220353 0.18640395
-0.079278134 -0.06917983 -0.28245583 0.25716853 -0.47936508 -0.3861581 0.0358247 0.653822
0.26515228 -0.23441963 0.11770741 0.3376506 -0.03037262 0.33241287 -1.9702349 -0.5415914
0.37126487 0.034725167 -0.0048120464 -0.06651907 0.03806476 0.054454178 -0.107483625 0.05631728
0.059573825 -0.038901906 -0.10859859 0.013105422 0.06691884 -0.0058746664 -0.04731655 -0.10657415
0.07951524 0.08871824 -0.0452132 -0.37348002 -0.5325773 -0.26149946 -0.5684219 0.09406496
0.3321784 0.10146787 0.25537163 -0.21125932 -0.08524457 -0.71609354 -0.86864436 -0.8452544
0.27763203 0.80665404 0.49114478 0.42034 -0.08268644 -0.42998612 -0.02232693 -0.20827197
-0.5065549 0.035068203 0.28896147 0.18185042 0.5380317 -0.0005963029 -0.14995752 -1.1119664
-1.4471395 -0.05498542 0.063752346 0.4448032 -0.61363167 -0.41395688 0.44231007 0.2019093
0.3894845 0.65091234 -0.123306304 0.12260938 -0.29927373 0.053564772 -0.062194742 -0.3200598
0.4729916 -0.3176761 -1.3506104 0.696648 -0.595436 -0.1800425 -0.17217815 -0.6008547
-0.22962141 0.09939997 0.0042163706 -0.10397757 0.03074926 -0.048670184 -0.06108753 0.112417646
-0.045367558 0.09990339 0.07939828 0.05573918 -0.08442941 0.02851771 0.1024802 -0.0951018
0.11513604 -0.106170766 -0.03098479 0.43520504 -0.9869549 0.3836743 -0.43915144 -0.559923
0.44476476 -0.13811825 -0.11057349 0.14799535 0.39453015 -0.7069796 0.7596418 -0.104662485
-0.60902864 0.58547103 -0.17398004 -0.13115731 0.28895438 0.75677854 -0.2373461 -0.5448797
0.1596048 -0.6269262 0.14212982 -0.069633074 0.16065007 0.14504816 0.642703 -0.27854487
-0.0114639895 0.5852557 -0.8585466 0.053035706 -0.3244081 -0.77436465 -0.13978225 -0.24899173
0.072478436 0.32097918 0.26506877 -0.0054936535 -0.5147067 0.25076675 0.12471355 0.21178938
-0.5410463 -1.2778682 -0.92685837 -0.5414527 -1.210946 -1.2759324 0.0004990993 -0.72716856
-0.46660846 0.06250611 -0.116096854 -0.017642573 -0.04399874 -0.03411151 -0.022145458 -0.1160348
-0.0010948066 -0.05012925 0.101844884 0.007938809 -0.038937926 0.029875569 -0.068944894 -0.11280097
0.09499804 0.01641527 -0.09759988 -0.3984074 0.483414 0.1553134 -0.18055825 0.2831578
0.15978976 -0.23716672 0.51331097 -0.009592874 -0.29027084 0.6078307 0.38541916 -0.39781335

bias f4 [16]
00000000: 5cf4 7bbe bb92 89be 3561 adbe 9ff8 d53d
00000010: 9afb 84bc dae3 a3be 2292 9d3e c769 f4bc
00000020: 9720 f6be a4e9 6cbe f33f e4be 1f5b 90bd
00000030: eca3 a03d 5424 9fbe 16c7 bbbd 35b0 a1be
-0.24604934 -0.2686976 -0.33863226 0.10447811 -0.016233254 -0.32009774 0.30775553 -0.029835595
-0.4807174 -0.23136002 -0.4458004 -0.0704863 0.078437656 -0.31082404 -0.09168832 -0.31579748

weight f4 [10, 784]
00000000: aa14 af3e 0fc2 493f 2400 8cbf 9086 eabe
00000010: 1653 6c3e daad 8cbe cf06 a63e 2457 4cbf
00000020: 50ee 49be c371 70bd 6feb 453b e7e1 dabe
00000030: 4d7f 0dbe 437f 8a3e 4bb4 50bf 62c5 acbd
00000040: 6c89 b6be 5810 e3be 1278 26bf f3a8 c5be
00000050: 8c24 103e dc70 92bc 50c2 01bf 2568 7d3b
00000060: 0986 69bf c8fe 28bf 79ec 573e 1d13 583e
00000070: 3be2 893e 997a 92be 8193 c9bd 2e8b e4bd
00000080: bb74 c13d 853f e83b 1c53 0b3d 8977 aebc
00000090: 6215 b7bd c9a2 a23d dcab 963e 7dc5 1e3f
000000a0: 2b91 463e 06bb 8d3e c4d1 243f 14e0 edbe
000000b0: 2e90 72bf b356 ddbe 5c8e 1fbf de3b 4fbf
000000c0: 6100 4bbc bbb9 82be 308c 743e 3d37 c5bb
000000d0: 25f8 dd3d b6a6 aabc cac4 e1be daf6 bdbe
000000e0: f6a8 48be 8818 2c3e ce61 4abd 74cb 6b3e
000000f0: 8ebe a33e 106e 9cbe 1bf9 2f3f 01af a73d
00000100: 8193 653e 6a26 373e 4c0b 883e 8cb7 10bf
00000110: 53f0 2abf 4b29 6abf 07f9 133e b6a2 a5be
00000120: dce8 5b3e 20c0 e0be 0bfd 3f3e d552 9a3e
00000130: c45d 9cbf 8e73 c73e a931 1bbf 75fb adbd
00000140: ea3a 233e 47cf 093e 94ea 36bf a057 033e
00000150: cea1 dcbc cec5 08bf 3401 9cbf 919c c1bd
00000160: 384f 10bf acf0 793f b373 973c 07a7 053f
00000170: a3ae 87bf a551 e8bf 339e bf3d daee 1c3f
00000180: 1748 0c3f 1846 bb3e 5382 3abe 636e 893e
00000190: d081 1bbe 235a d5be 2746 81bd 849f 1c3d
000001a0: 6b01 0d3e 327a 863c e789 17be 1bea dcbe
000001b0: d21f 24be 5469 a1be 56e5 82bf 951a 36bd
000001c0: 4285 adbb 756c 69bd 937d 3abd d65f 8c3e
000001d0: 97ac 0cbf 3fb3 1bbf 29c4 773d 01a9 8b3e
000001e0: 60d8 ba3e 4cf9 173e 86f5 193f df91 363f
000001f0: a2b0 79be 85eb 6abe e879 ba3d 446e aabd
00000200: 4570 623e 8cd0 013f e266 b03d 837f 293f
00000210: f2af 0e3f 80ec 9cbd f511 23be 5965 93bf
00000220: bfc5 1cbf 2835 e93e 4719 74be 334d 473c
00000230: 255a 163f ada4 93bf d7dd 0cbf 1199 9fbe
00000240: 503a 19bf dcb0 45be 8cba 1bbf b331 e3be
00000250: e625 7fbc 077e e6be 606f ba3d 8284 443e
00000260: 1699 98bd a74e 75bf 18dc a4be 1392 33be
00000270: 5d75 3ebe 9f65 5f3e 8dbf b7be 1ebe c5be
00000280: eea6 413e ef8e 113d de3d 653d be52 8bbb
00000290: d850 d8bd 6cc5 c23e 16c1 96bd 3757 983e
000002a0: aafb c3be f8eb 6f3e ee23 6b3e 13c1 44bf
000002b0: 0d08 9fbe fd21 8bbe 6191 9e3e 3dec 5d3e
000002c0: 76bf 433e 59e0 423d 4e04 14bf f6b1 6cbe
000002d0: 3771 98be c781 52bf 0231 0c3f 189c e83e
000002e0: dd28 853f 1087 5e3f e3c6 7e3e fd5a 0cbf
000002f0: 7b9d 2cbf 5358 32bd bfb1 46bf 0523 42bf
00000300: bd71 31bf 2bd0 86bd 4f43 35bd f6a3 863c
00000310: 2921 473e 55d2 073e d519 e6bd de31 7abe
00000320: 691f d8be d4f6 923b bc93 10bd fcf0 cb3d
00000330: 99ef 983d 945c cdbe 73f0 a73d 3974 45bd
00000340: 4369 cfbd 42d4 cb3e 17b2 663e b5ae 0abe
00000350: 67cc c53e 5745 a1bd e186 393e b517 d13d
00000360: 46ef 603e 8859 373e 81fc 39bd c5bf a43d
00000370: de9d 443e f6a1 0f3e f9a7 543e ba17 623e
00000380: 189d cabb c777 48be d9b1 433d da10 993d
00000390: fb98 15be d7d7 dc3c 96b6 853e b3cf 813e
000003a0: 0eb7 0f3f d721 1a3f ce90 1abf dc79 1ebe
000003b0: b082 933d 4410 84be c7c5 2d3e 8284 ee3e
000003c0: c015 8fbf 003d bfbf 3e92 69be e73e 74bf
000003d0: 4fb5 edbe 1e4c 1dbe a20d 7a3e 2f16 383e
000003e0: 6c33 4a3c ce89 c53d 1ab0 143f e981 163f
000003f0: d5a7 0bbf 05a1 863d 0e59 283c cf4c e33d
0.34195453 0.78811735 -1.0937543 -0.45805788 0.2307857 -0.27476388 0.3242707 -0.79820466
-0.19719815 -0.05870224 0.0030200144 -0.42750475 -0.13818093 0.27050218 -0.81525105 -0.08436085
-0.3565172 -0.44348407 -0.6502696 -0.3860546 0.14076442 -0.017876081 -0.5068712 0.0038666811
-0.91220146 -0.66013765 0.21086301 0.21101041 0.26930413 -0.2860916 -0.09842587 -0.11159359
0.09446093 0.0070876502 0.034014806 -0.021297233 -0.08939625 0.07941205 0.29427993 0.62020093
0.19391315 0.2768175 0.64382577 -0.4646002 -0.9475125 -0.4323021 -0.623266 -0.80950725
-0.012390227 -0.25532326 0.23881602 -0.006018548 0.108383454 -0.020831447 -0.4409545 -0.37102395
-0.19595703 0.16806233 -0.04940968 0.2302683 0.3198132 -0.3055272 0.6873948 0.08187676
0.2241955 0.17885748 0.2657112 -0.5653007 -0.66772956 -0.9146926 0.14450465 -0.323507
0.21475548 -0.4389658 0.18748872 0.3014132 -1.2216115 0.3895535 -0.6062265 -0.08495227
0.15940443 0.13457976 -0.7145169 0.12826395 -0.026932623 -0.53426826 -1.2187867 -0.09453691
-0.5637088 0.9763286 0.018487787 0.5220799 -1.060017 -1.8149916 0.09356346 0.6130196
0.547975 0.36576915 -0.18213777 0.2684203 -0.15186238 -0.4167033 -0.063122086 0.038238063
0.13770072 0.01641569 -0.147987 -0.43147358 -0.16027763 -0.3152567 -1.0226238 -0.044458944
-0.0052954266 -0.0569882 -0.045529913 0.27416867 -0.5495085 -0.6082038 0.060489807 0.27277377
0.36493206 0.14841193 0.60140264 0.7131633 -0.24383786 -0.22941406 0.09105283 -0.08321813
0.2211314 0.5070884 0.08613373 0.6621019 0.5573722 -0.07662296 -0.15924819 -1.1515304
-0.61239237 0.45548368 -0.23837768 0.012164402 0.587313 -1.153463 -0.55026 -0.31171468
-0.598546 -0.19305748 -0.6083152 -0.44373855 -0.015573001 -0.45018026 0.09103274 0.19191173
-0.07451074 -0.9582314 -0.32199168 -0.17536192 -0.18599458 0.21816109 -0.3588833 -0.3862161
0.18911335 0.035536703 0.055967204 -0.004251807 -0.10562295 0.38041246 -0.07361047 0.2975404
-0.38277942 0.23429859 0.22962925 -0.7685711 -0.3106083 -0.27174369 0.3097029 0.21672149
0.19116005 0.047577236 -0.5781907 -0.23114762 -0.29773876 -0.82229275 0.5476228 0.4543159
1.0403095 0.8692484 0.24880557 -0.5482634 -0.67427796 -0.043541264 -0.7761497 -0.75834686
-0.69314176 -0.06582674 -0.044253644 0.016435605 0.19446243 0.13263829 -0.11235396 -0.24433085
-0.42211464 0.0044849906 -0.03529714 0.099580735 0.074675746 -0.40109694 0.08200159 -0.04820654
-0.10127499 0.39810377 0.22528873 -0.13543208 0.3863251 -0.07874554 0.18117858 0.102096
0.21966276 0.17905247 -0.045406822 0.0804439 0.19200847 0.14026627 0.20767201 0.22079363
-0.006183278 -0.19576941 0.04777703 0.07473917 -0.14609139 0.02695839 0.26115865 0.25353774
0.56138694 0.60207886 -0.60377204 -0.15476173 0.07202661 -0.2579366 0.16969977 0.4658547
-1.1178513 -1.4940491 -0.22809693 -0.9540848 -0.4642739 -0.15361068 0.24419263 0.17977212
0.0123413615 0.09645425 0.5808121 0.5879198 -0.54552966 0.06573681 0.010275139 0.110986345

bias f4 [10]
00000000: 7763 b23e d6cb 9f3e 8dc4 a13d 090b cfbe
00000010: 9455 933d a076 ae3c a1a3 033c a3c9 48be
00000020: 4aea ae3e 00c2 63be
0.3484151 0.31210202 0.07898817 -0.40438107 0.07194057 0.0212968 0.008034618 -0.19608168
0.34163123 -0.22241974
